data.pth (torch, 13015 bytes, 6 tensors)

l1.weight f4 [8, 183]
000000 0a 5a bc 3d 51 98 1c be 39 85 56 3f b9 59 70 3f
       0.09196861 -0.15292479 0.8379703 0.93886906
000010 68 d0 25 3f 24 c6 e4 3c 92 41 6d 3d 1f 93 47 be
       0.6477113 0.027926512 0.05792386 -0.19489716
000020 78 2f b5 3e 42 ef 49 3f ce d1 a3 be 51 99 05 bf
       0.35387778 0.78880703 -0.31996006 -0.5218707
000030 10 08 e8 bd 3b e1 13 3f 77 83 14 3d f5 0c fc 3e
       -0.11329663 0.5776555 0.036258187 0.49228635
000040 12 e9 00 3f fb cc 8c 3c 9f b9 66 3d d9 2a 42 3f
       0.5035564 0.017187586 0.056329366 0.7584663
000050 ad b2 64 3e 14 d6 32 bf 34 fa 1b 3f 1b f4 25 3f
       0.22333784 -0.6985791 0.60928655 0.648256
000060 fb 97 4e 3f 37 bd f4 3e 8c c8 d9 be 0a 35 25 3f
       0.80700654 0.4780061 -0.42535818 0.64534056
000070 11 f2 4c bf 43 e6 31 3f 0b b2 16 bf 02 30 66 3e
       -0.80056864 0.69491976 -0.5886542 0.22479251
000080 2f 2f 93 3d 7a d9 81 be a8 35 8c be 37 23 30 3f
       0.07186734 -0.25361234 -0.27384686 0.68803734
000090 3c 83 a6 3e c2 d8 b6 3d ca ba 89 be 53 cd 2c 3f
       0.32522 0.08928062 -0.2690032 0.675008
0000a0 49 f1 1c 3e e2 e4 4c bf a5 09 0b bf d1 a1 26 bf
       0.15326418 -0.8003675 -0.5431159 -0.6509066
0000b0 64 a9 fa 3e 0f e1 40 3f da d9 06 3f ef b2 c2 3e
       0.4895736 0.7534341 0.52676165 0.3802714
0000c0 4a 1a 44 bf 30 be 2b bf f1 15 eb 3e 40 3f 13 bf
       -0.76602614 -0.6708708 0.45915177 -0.57518387
0000d0 4a 23 29 3e 7d 03 aa 3e ac 80 86 3e ff 47 3f bf
       0.16517368 0.33205786 0.26270044 -0.7471923
0000e0 7d d5 66 3f d1 86 11 3e 43 c6 68 3f 26 4a 24 3f
       0.9016951 0.14211585 0.90927523 0.6417564
0000f0 d7 fc 2d 3f 0b d1 1b be 22 12 0e be d5 11 11 bf
       0.6796393 -0.15216462 -0.13874105 -0.56667835
000100 da 8b 60 3f 6d ed 2d bf 8e 66 65 3b 68 90 73 3e
       0.87713397 -0.6794041 0.0035003754 0.23785555
000110 1b 84 58 3e 6c 63 3e 3f 8d 9e 3c 3f 25 43 0c bf
       0.21144144 0.74370456 0.7367943 -0.54789954
000120 a7 59 b7 3e e7 65 83 be af 49 44 3c ee 83 9e 3d
       0.35810587 -0.25663683 0.011980458 0.07740007
000130 fe d1 64 bf 34 3b 20 3f f0 6e c6 be cf 59 0c 3f
       -0.8938292 0.62590337 -0.38756514 0.5482454
000140 21 ca 26 bf 99 91 08 bf 4e d6 d6 3e 28 dd 39 3f
       -0.65152174 -0.53347164 0.41960377 0.7260308
000150 c1 55 27 bf 61 7f a5 3e d6 af 7c 3f 90 6d 06 3f
       -0.65365225 0.32323745 0.98705804 0.5251093
000160 8e dc 6c 3f e4 32 3b bd ba 04 d8 3e 94 58 dc be
       0.9252404 -0.04570283 0.42191106 -0.4303633
000170 59 ae ac bd aa 14 52 bf 6b 00 0d bf fb 27 df 3e
       -0.08431692 -0.8206278 -0.5507876 0.4358519
000180 02 61 88 3e 94 95 2d 3f 1b b4 0f 3f 5f 48 c8 3e
       0.2663651 0.67806363 0.56134194 0.39117715
000190 01 d6 72 3f 43 d9 82 3e b2 6f 26 be 53 7d 47 3f
       0.94857794 0.25556383 -0.16253546 0.77925605
0001a0 c2 c7 de 3e 9c 67 99 be a3 05 04 3d a7 41 5e bf
       0.43511778 -0.2996186 0.032231938 -0.8681893
0001b0 e6 07 ae bd 0e 1b b6 be a0 c4 48 bf a9 9b 2a bf
       -0.084976 -0.35567516 -0.78425026 -0.6664377
0001c0 c6 1b 80 3e 16 e7 e6 be 47 d3 ef 3c d3 7f c4 3e
       0.2502119 -0.4509818 0.02927555 0.38378772
0001d0 e4 c2 2a be 1a c8 4d 3f 0a 84 9a 3d ad e8 14 bf
       -0.16675907 0.80383456 0.07544716 -0.58167535
0001e0 d7 4d 27 be 36 35 49 bf 58 3d ac 3d d7 e8 74 3f
       -0.16338287 -0.7859682 0.08410138 0.95667785
0001f0 0c 1e 1c 3f 05 22 57 3e 49 bf 57 bf 36 88 eb be
       0.6098335 0.21009071 -0.84276253 -0.46002358
000200 a3 b7 3c 3f bd 67 38 bf 24 75 6e bf aa 94 77 be
       0.7371771 -0.7203329 -0.9314749 -0.24177805
000210 bc ab cf be f6 4e 5b 3f 64 c2 57 bf ba 26 43 3f
       -0.4056071 0.8566736 -0.8428099 0.7623097
000220 d2 31 88 be 3e cf 52 be 52 14 36 bd a4 7f 26 3f
       -0.2660051 -0.20586869 -0.044452973 0.65038514
000230 e8 3b 79 3e 72 99 37 bf ad e9 e9 bd 25 ae 4b bf
       0.24339259 -0.71718514 -0.11421523 -0.795626
000240 1a 48 2e 3f d3 1d 5d bf 53 3b 09 be a7 6e 3e bf
       0.6807877 -0.86373633 -0.13401537 -0.7438759
000250 e7 02 45 3f de 09 40 3f 1b 51 37 3f 0f bf 79 3d
       0.76957554 0.75015056 0.7160813 0.060973223
000260 f8 fa b0 3e f3 bc 3a 3e 44 82 33 3f fe ad 0e 3f
       0.34566474 0.18236141 0.70120645 0.5573424
000270 95 2d 58 bf 62 02 aa 3d f8 8b cb 3e 6b 55 bb 3e
       -0.8444455 0.08301236 0.39755225 0.36588606
000280 fe e7 de 3e d6 57 e8 3e 65 a6 bd bd 33 45 8c bf
       0.4353637 0.45379514 -0.09260253 -1.0958618
000290 8c f2 67 bf 5a e6 13 bf a4 34 8d 3e f0 45 1b 3f
       -0.9060447 -0.57773364 0.27579224 0.6065359
0002a0 cf bc 2c 3f aa d9 fe be 67 4c 0a 3f 21 2f 1d 3f
       0.674756 -0.4977544 0.5402283 0.6140004
0002b0 a6 08 d6 3e 59 f3 3a 3f 26 47 a1 3e e2 76 0f 3f
       0.41803473 0.7302757 0.31499594 0.56040776
0002c0 02 db 52 3f 84 c9 8f be b7 f9 39 be bc 77 11 3f
       0.8236543 -0.28083432 -0.18161665 0.56823325
0002d0 4b 98 63 bf 73 f5 24 be e8 f8 6b 3d 5c 47 fe 3c
       -0.88904256 -0.16109256 0.057610422 0.031039886
0002e0 5a c4 1b 3e 64 f7 0d 3f 6c 5b c7 be ce 1e 9c 3e
       0.15211621 0.55455613 -0.38936937 0.30492252
0002f0 e7 c1 f4 3e c1 61 92 3e d0 bb 73 be 3e 2a 77 3f
       0.47804186 0.28590205 -0.23802114 0.9654883
000300 48 2d 21 bf 25 fb 09 bf 90 e1 74 3f 43 8b 11 3e
       -0.6295972 -0.5389884 0.9565668 0.1421328
000310 ec 9f 30 3e d2 8a 8c bc c7 b5 f8 be f8 8c 2c 3f
       0.17248505 -0.017156038 -0.48576185 0.674026
000320 19 07 46 3f ed a1 06 3f 49 f2 00 bf d6 58 db 3e
       0.7735458 0.5259083 -0.503697 0.42841214
000330 b9 95 8c 3e 00 ef 9e 3e 0d 04 b4 be e8 99 2d bf
       0.2745798 0.31041718 -0.3515934 -0.6781297
000340 e8 8f f5 3d ca 00 10 3f 6c 75 ea bc b5 0a a7 3e
       0.119903386 0.56251204 -0.028620444 0.32625356
000350 6e 48 cb 3e 3c 7f 4f 3f 64 07 7e be e4 51 2e 3e
       0.39703697 0.8105352 -0.24807507 0.17023426
000360 e7 b3 18 3f d4 de 22 bf 60 f4 f1 be 33 75 bb 3e
       0.5964951 -0.6362126 -0.47256756 0.36612853
000370 06 81 43 3f fc 4c 5f be 4b d1 22 bf 3c 3b 54 be
       0.7636875 -0.21806711 -0.63600606 -0.20725721
000380 bc de d2 3d 48 22 09 3f 9f b7 31 3f 64 3e 23 3f
       0.102963895 0.53567934 0.6942081 0.63767076
000390 46 75 e1 3e 99 20 bd 3d 9e 10 65 3f 4c 9e 0b 3e
       0.44034785 0.09234733 0.8947848 0.13634604
0003a0 7a 76 64 3f 9d b6 fb be 14 72 04 3e 3d a0 71 3d
       0.8924328 -0.4916276 0.12934142 0.058990706
0003b0 ea 35 22 be 64 1f a3 be 76 13 0d 3e bd 1b 2a bf
       -0.15840879 -0.31859887 0.13776955 -0.66448575
0003c0 18 6c 28 bf f5 56 45 3d 4d c6 53 3f 83 3c 93 3e
       -0.6578994 0.04817863 0.8272446 0.28757104
0003d0 7d 13 87 3e 39 35 7b bf 73 eb 37 3f d6 b2 ad 3d
       0.26382056 -0.98128086 0.7184364 0.08481376
0003e0 63 bc 81 3e 9f c8 9c bc 87 b0 52 be 20 be ff 3e
       0.2533904 -0.019138632 -0.20575152 0.4994974
0003f0 97 48 7b be 43 47 09 bf ce 0f 28 3f 79 7b 62 3e
       -0.2453941 -0.5362436 0.65649116 0.22117414

l1.bias f4 [8]
000000 5e f7 2a 3f d8 a8 23 3f d3 5c 89 3f 1b a0 f7 3e
       0.667837 0.6392951 1.0731453 0.48364338
000010 0e 98 42 3f b2 bd 0d 3f f7 1e 07 3f c6 e5 cc 3e
       0.7601327 0.5536758 0.52781624 0.40019053

l2.weight f4 [8, 8]
000000 85 70 9f bf a8 64 ab 3f 3d 88 19 3f 8c 64 15 3e
       -1.2456213 1.3390093 0.5997351 0.14589137
000010 83 12 76 3f 81 58 bd 3e 0a 79 0d bf 53 31 b8 be
       0.96121997 0.36981586 -0.55262816 -0.3597513
000020 1c 87 fc 3f f8 06 4e 3e 0b 61 b6 3f ed f1 20 bf
       1.9728732 0.20119846 1.4248365 -0.6286915
000030 27 06 ae be 95 f0 d4 3f 40 f2 49 bf 23 52 fd be
       -0.3398907 1.663592 -0.7888527 -0.49476728
000040 cf 14 5d bf c2 34 af 3f e3 6c 44 3e 3b 2a 24 3f
       -0.86359876 1.3687975 0.19182162 0.6412694
000050 c5 95 33 be 70 e5 db 3f bf 16 28 3f 51 fb 44 3f
       -0.17537601 1.7179394 0.6565971 0.7694598
000060 d2 07 4e 3f 7f c8 4b 3f 25 79 e4 3e 83 e3 b3 3f
       0.8048068 0.7960281 0.44623676 1.4053806
000070 e2 f9 66 bd d2 be 10 3f 50 3e 4a bf 7f 47 b6 bf
       -0.05639065 0.5654117 -0.7900133 -1.4240569
000080 83 1b 60 bf 3a 68 e1 bd 22 45 8f 3f 15 83 7c 3f
       -0.8754198 -0.11006208 1.1192973 0.98637515
000090 75 06 fe 3f c5 96 6f bf de d0 a0 bf 5b 77 ed 3f
       1.984572 -0.9358943 -1.2563741 1.8552049
0000a0 88 66 c8 3e 16 91 cd 3f a2 4c 06 bf 0c bd f4 3f
       0.39140725 1.6059902 -0.5246068 1.9120193
0000b0 b5 e5 8e 3e 29 f3 47 3d 1c 26 b2 3f 02 0a e4 3e
       0.27909628 0.04881588 1.391788 0.44538885
0000c0 3a 39 ac 3f 83 9e 90 bf 66 e8 cd 3f ab a3 2e bf
       1.3454964 -1.1298374 1.6086547 -0.6821849
0000d0 10 b9 fb 3f 86 cd d6 bf c3 e7 b1 3f b5 e3 79 bf
       1.9665852 -1.6781471 1.3898853 -0.9761308
0000e0 f2 55 1a bf 76 ed 78 bf 2e e1 a2 3f d8 d0 a8 bf
       -0.6028739 -0.97237337 1.2724969 -1.3188734
0000f0 09 6e 45 be ea ea e7 3e 31 e2 e0 be ed 7b b0 3f
       -0.19280256 0.45296413 -0.4392257 1.3787819

l2.bias f4 [8]
000000 ec c4 bc be 51 6d 94 3e 01 05 ea be c0 03 7f be
       -0.3686899 0.28989652 -0.45706943 -0.24903774
000010 44 a2 c4 3e 6e 51 29 3f 7d 51 59 3f 7d b1 09 3f
       0.3840505 0.66139877 0.84889966 0.5378645

l3.weight f4 [38, 8]
000000 91 46 c4 bf ea 89 39 bd 93 07 0b c0 24 81 e5 bf
       -1.5334035 -0.04529754 -2.1723373 -1.7930036
000010 6e cd 94 3e 6d bb 0c bf 92 d1 28 3f 1b c5 24 c0
       0.2906298 -0.5497349 0.6594478 -2.5745304
000020 45 f5 01 c0 ae c2 f1 3d 01 b2 b1 3e c0 36 22 c0
       -2.030595 0.1180471 0.3470612 -2.5345917
000030 43 31 c3 bf bc 46 d1 3e ad 61 e8 be 8e 36 4f bf
       -1.5249408 0.4087428 -0.4538702 -0.8094262
000040 b9 55 39 c0 e0 f5 a6 be 18 ec 4d bf 38 99 67 bd
       -2.895857 -0.32609463 -0.80438375 -0.056542605
000050 51 f0 c7 bf e0 0a 76 3e 1b ec e7 3e a2 78 e2 bf
       -1.5620214 0.24027586 0.45297322 -1.7693064
000060 63 34 7d bd 8c 06 6f 3d d3 ec 03 3e 0c 76 99 3e
       -0.061817538 0.058355853 0.1288331 0.29972875
000070 e0 9b 0f c0 dc 98 ce bd 5e 67 38 bf 43 bf 14 c0
       -2.2438889 -0.10087749 -0.72032726 -2.3241737
000080 2e 1f 09 c0 05 7a f4 3e 59 85 04 c0 26 56 39 3d
       -2.142528 0.47749344 -2.070639 0.045248173
000090 57 41 f1 be 23 63 1d c0 07 1b ad 3e 61 15 d2 be
       -0.47120163 -2.4591758 0.33809683 -0.41031936
0000a0 46 ef 68 bf 53 f0 84 3c b6 07 15 be 17 e2 4c 3e
       -0.909901 0.016227877 -0.14553723 0.20008121
0000b0 b7 6e 29 bd 58 45 10 3d 98 f7 ea bf 2e 56 09 c0
       -0.04136535 0.03522238 -1.835681 -2.145885
0000c0 08 46 7b 3e ad 9c bd bf 69 1d 2e bd 7b d5 3f 3e
       0.24538434 -1.4813439 -0.042508516 0.1873378
0000d0 b8 90 c8 3e 2e 5f 91 3c ff 9d c1 bf f6 00 ee bf
       0.39172912 0.01774558 -1.5126342 -1.8594043
0000e0 92 79 1d c0 e9 53 08 3e e7 b5 dc be a1 ab 2f 3f
       -2.460545 0.13313259 -0.4310753 0.6862126
0000f0 1d 61 df bf 1e dd ff 3e ce 80 c5 bf c1 f7 8f bf
       -1.7451512 0.49973387 -1.5429933 -1.1247483
000100 ad 73 1f be 86 8c 71 3d 84 8b cb bf 90 0a 4e 3e
       -0.1557147 0.058971904 -1.5901952 0.20121217
000110 b4 11 9a 3a cc ba dc bf 5a ab 35 3e 84 77 c1 be
       0.0011754544 -1.7244506 0.17741147 -0.37786496
000120 46 30 06 c0 fa b4 1b c0 ab dc 90 3e 50 d6 8b be
       -2.0966964 -2.432921 0.28293356 -0.27311945
000130 b9 43 28 be fe 31 0d 3f ec 40 ad be 7e 85 9b bf
       -0.16432084 0.5515441 -0.33838594 -1.2150114
000140 4c 74 22 bf a7 71 41 be 53 14 2a c0 19 d2 62 bf
       -0.63458705 -0.18891011 -2.6574905 -0.88601834
000150 22 0a 8e 3e db 54 11 c0 ca b8 0f 3f 68 77 c2 3e
       0.27742106 -2.2708042 0.5614134 0.37981725
000160 11 1c 0d c0 0a 88 8b 3e 16 4b 26 c0 da c2 c7 3e
       -2.204838 0.27252227 -2.598333 0.39015847
000170 09 91 60 bf 9d 42 2d bf 85 4b e7 3e fc b5 f1 bf
       -0.87721306 -0.6767977 0.45174804 -1.8883662
000180 a6 60 3a 3e 3d 9c 02 bf e9 25 48 be cf 59 03 3f
       0.18200931 -0.5101965 -0.19545712 0.5130891
000190 67 c1 ad 3d 41 34 5e bf 84 de cb be 0b a5 b1 bf
       0.08484154 -0.86798483 -0.39818203 -1.3878492
0001a0 6a bd 42 3e d3 f6 1b c0 a5 f9 35 3f 5b 8b 83 bf
       0.19017568 -2.43694 0.7108405 -1.0276903
0001b0 cd 36 9e 3e 17 59 f8 bd a8 e7 6f bf b1 07 00 c0
       0.30901185 -0.121263675 -0.93712854 -2.0004694
0001c0 97 09 e7 bf 9d 75 01 3f e4 28 8b be ea db ba 3d
       -1.8049802 0.5057009 -0.27179635 0.091239765
0001d0 71 62 0b c0 46 1a f8 be a0 ab 57 3d 72 b1 19 c0
       -2.1778834 -0.48457545 0.05265391 -2.4014554
0001e0 bb af 92 be 82 93 7e bd 61 64 42 3d ba 8b e0 bf
       -0.28649697 -0.062152393 0.04745901 -1.7542641
0001f0 cb 6d af 3d fd 2f df bf 78 57 9b bf 0e 74 46 3f
       0.08565863 -1.743652 -1.2136068 0.77520835
000200 25 98 5d bf 2e df b2 bf 2e 27 1d 3f f8 44 d2 be
       -0.8656028 -1.3974359 0.6138791 -0.41068244
000210 4e 45 d5 bf 80 6f 05 3f b7 79 86 bf 31 4d 6d bf
       -1.6661775 0.5212326 -1.0505894 -0.9269591
000220 b5 5b 52 bf e2 78 6c bf d6 97 a8 be d9 0f 2d 3f
       -0.82171184 -0.9237195 -0.32928342 0.67602307
000230 ed 80 7d bf c3 b7 00 3f 75 4f f2 be 5f 7a 7c bf
       -0.9902485 0.502804 -0.47326246 -0.98624223
000240 59 6c b8 bf 55 d7 a2 bc ff 38 03 bf 90 e1 30 c0
       -1.4408065 -0.019878069 -0.51258844 -2.7637672
000250 ae 25 e8 bf c5 96 51 be c3 33 67 3f a6 b9 8c bf
       -1.8136499 -0.2046767 0.9031336 -1.0994155
000260 3d de ef bf 85 8d 65 be 00 ba e8 3e fa 42 67 bf
       -1.8739697 -0.22417267 0.45454407 -0.90336573
000270 73 14 b6 3d e7 4b d3 be b6 eb 39 bf 8c 44 5c be
       0.08890619 -0.41268846 -0.7262529 -0.21510524
000280 ee 0f 9c bf a8 11 d3 bf e0 71 cd be 52 6c bd bf
       -1.2192361 -1.6489763 -0.40125942 -1.4798682
000290 81 6f cc 3e 67 fb 17 bf 0f bb 86 3e a9 c7 e1 3e
       0.3992882 -0.59367985 0.2631459 0.4409764
0002a0 ae 91 ca bf 98 35 a9 3e 7e 51 95 bf 81 a3 82 bf
       -1.5825708 0.330487 -1.1665494 -1.0206147
0002b0 10 bd 0b c0 3d ac 59 bf 16 96 20 3f 99 68 ef 3d
       -2.1834145 -0.8502844 0.6272901 0.11689872
0002c0 4c f9 d8 3e 08 6d 41 be f9 e6 5d be 48 bd 31 bf
       0.42377698 -0.18889248 -0.2167014 -0.69429445
0002d0 b5 b7 1f be 9c b6 c4 bf d4 f5 c4 bd 17 3c 85 bd
       -0.15597422 -1.5368228 -0.096172005 -0.06505602
0002e0 a4 22 e5 3d b1 34 ff bf aa e5 9d be 9e 7c 20 c0
       0.11188248 -1.9937955 -0.30839282 -2.507606
0002f0 13 1a 12 3f 37 62 c3 be be 8d 5e 3e 96 bb 58 bf
       0.57071036 -0.3816087 0.21733758 -0.84661233
000300 fd 9c 5c 3e 0f c6 bd bf e4 16 0f be a3 1c c4 bf
       0.21544261 -1.4826068 -0.13973576 -1.5321239
000310 6c 0b 0b 3f 3e 31 95 3d b8 6b e0 bf 94 fc 30 3d
       0.54314303 0.07284783 -1.7532873 0.043209627
000320 89 c9 93 bf 5f 30 14 3d 09 0d d1 be 76 fd 87 be
       -1.1545879 0.036178943 -0.40830258 -0.26560563
000330 4d 82 83 bd b9 3f 4a bf ea b2 a6 3e ef 80 0c c0
       -0.06421337 -0.79003483 0.32558376 -2.1953695
000340 ed 69 07 be ea 37 72 3e fe 74 bd 3c 75 d2 a7 bd
       -0.13224001 0.23654142 0.023127075 -0.08194438
000350 7b f6 ae bf b7 3e 49 bf 41 43 0c bf ab 6f 09 bf
       -1.366897 -0.7861132 -0.5479012 -0.53686017
000360 ac 62 29 c0 6a 41 e5 bc a2 8c a9 bf 28 be d2 bf
       -2.6466475 -0.027985293 -1.3246043 -1.6464281
000370 cf 4e 1e 3d 19 10 f1 be a0 29 9e 3e b8 4c 36 3e
       0.038649376 -0.47082594 0.30891132 0.17802703
000380 1a 02 6a be 09 37 4d bf ea 16 01 bf c4 24 fd bf
       -0.22852364 -0.801621 -0.5042559 -1.9776845
000390 a2 9c 26 3f 4a 13 0f c0 3a 07 50 be 56 48 45 3f
       0.6508275 -2.2355523 -0.20315257 0.770635
0003a0 ab 49 ee 3e cb b6 81 bf 62 d6 4f 3e 89 0c d4 3e
       0.4654058 -1.0133909 0.20296624 0.41415814
0003b0 5d c9 a3 bf 05 6c 80 3e cd 8a bc bf e8 53 a8 bf
       -1.2795826 0.25082412 -1.4729859 -1.3150606
0003c0 a9 fd 54 3e 79 40 60 bf 7d 7a fc 3c e5 46 08 c0
       0.20799889 -0.8759838 0.030820126 -2.129327
0003d0 ad d1 4c 3e 7b 36 40 bf 0c 5f 58 be 7d 30 6e 3e
       0.2000186 -0.7508313 -0.21130008 0.23260684
0003e0 c8 dc fb 3e a9 0f 8b bf 22 c8 88 bf 71 45 a3 bf
       0.4919188 -1.0864154 -1.0686076 -1.2755567
0003f0 34 42 0f 3f e3 60 d4 bf 02 24 dd 3e c0 2b a9 bc
       0.5596039 -1.6592067 0.43191534 -0.020650744

l3.bias f4 [38]
000000 c7 a3 7c 3e c2 fa bf 3e 15 18 e7 3d 5b 57 aa be
       0.24671851 0.37496 0.1128389 -0.33269772
000010 ac cb 84 bd f3 c4 01 3e 99 07 a0 be 63 29 70 3e
       -0.0648416 0.12672786 -0.31255797 0.23453288
000020 45 05 d9 be 3b 89 23 3f fc 58 1b be e6 64 a9 3e
       -0.42386833 0.6388127 -0.15170664 0.33084792
000030 aa 99 a3 be bd 49 8b be 09 ee bc be d5 c6 6a be
       -0.31953174 -0.27204695 -0.36900356 -0.22927411
000040 25 0d 1f be 4a c2 fd 3d 5c 0d 0b 3f 03 75 a7 3d
       -0.15532358 0.12390573 0.5431726 0.08176615
000050 81 89 6d 3c 05 46 9b 3c 87 65 a5 be df 53 7b bd
       0.0144981155 0.018954286 -0.32304022 -0.061359283
000060 4a 3b 6d 3e 93 0a f7 bd 57 81 18 3e c5 17 0c 3e
       0.23167148 -0.12062564 0.14893089 0.13680942
000070 c7 5c 85 be 6d 4b a3 bd c6 fa da be 63 ab 5c be
       -0.26047346 -0.07973371 -0.4276945 -0.21549754
000080 64 f9 f4 bd f0 69 87 3e 06 9c 6a be 45 ea d1 be
       -0.1196163 0.2644801 -0.2291108 -0.40999046
000090 e0 0e 01 3f 94 48 20 bf
       0.5041332 -0.62610745
